…
data shape  (3, 2) <class 'pandas.core.frame.DataFrame'>
[458, 482, 784]
2020-04-20 22:55:18.894422: I tensorflow/core/platform/cpu_feature_guard.cc:142] Your CPU supports instructions that this TensorFlow binary was not compiled to use: AVX2
[name: "/device:CPU:0"
device_type: "CPU"
memory_limit: 268435456
locality {
}
incarnation: 7622352740478977570
]
GPU is NOT AVAILABLE
Model: "sequential_1"
_________________________________________________________________
Layer (type)                 Output Shape              Param #   
=================================================================
conv2d_1 (Conv2D)            (None, 28, 28, 64)        1664      
_________________________________________________________________
conv2d_2 (Conv2D)            (None, 24, 24, 64)        102464    
_________________________________________________________________
max_pooling2d_1 (MaxPooling2 (None, 12, 12, 64)        0         
_________________________________________________________________
dropout_1 (Dropout)          (None, 12, 12, 64)        0         
_________________________________________________________________
conv2d_3 (Conv2D)            (None, 10, 10, 32)        18464     
_________________________________________________________________
conv2d_4 (Conv2D)            (None, 8, 8, 32)          9248      
_________________________________________________________________
max_pooling2d_2 (MaxPooling2 (None, 4, 4, 32)          0         
_________________________________________________________________
dropout_2 (Dropout)          (None, 4, 4, 32)          0         
_________________________________________________________________
flatten_1 (Flatten)          (None, 512)               0         
_________________________________________________________________
dense_1 (Dense)              (None, 256)               131328    
_________________________________________________________________
dropout_3 (Dropout)          (None, 256)               0         
_________________________________________________________________
dense_2 (Dense)              (None, 3)                 771       
=================================================================
Total params: 263,939
Trainable params: 263,939
Non-trainable params: 0
_________________________________________________________________
None
Epoch 1/30

  1/200 [..............................] - ETA: 15:08 - loss: 1.1282 - accuracy: 0.2109
  2/200 [..............................] - ETA: 10:00 - loss: 1.1008 - accuracy: 0.3320
…
