…
data shape  (3, 2) <class 'pandas.core.frame.DataFrame'>
[307, 1061, 864]
2020-04-18 21:34:48.990792: I tensorflow/core/platform/cpu_feature_guard.cc:142] Your CPU supports instructions that this TensorFlow binary was not compiled to use: AVX2
[name: "/device:CPU:0"
device_type: "CPU"
memory_limit: 268435456
locality {
}
incarnation: 13871376683369099561
]
GPU is NOT AVAILABLE
Model: "sequential_1"
_________________________________________________________________
Layer (type)                 Output Shape              Param #   
=================================================================
conv2d_1 (Conv2D)            (None, 28, 28, 60)        1560      
_________________________________________________________________
conv2d_2 (Conv2D)            (None, 24, 24, 60)        90060     
_________________________________________________________________
max_pooling2d_1 (MaxPooling2 (None, 12, 12, 60)        0         
_________________________________________________________________
conv2d_3 (Conv2D)            (None, 10, 10, 30)        16230     
_________________________________________________________________
conv2d_4 (Conv2D)            (None, 8, 8, 30)          8130      
_________________________________________________________________
max_pooling2d_2 (MaxPooling2 (None, 4, 4, 30)          0         
_________________________________________________________________
dropout_1 (Dropout)          (None, 4, 4, 30)          0         
_________________________________________________________________
flatten_1 (Flatten)          (None, 480)               0         
_________________________________________________________________
dense_1 (Dense)              (None, 256)               123136    
_________________________________________________________________
dropout_2 (Dropout)          (None, 256)               0         
_________________________________________________________________
dense_2 (Dense)              (None, 3)                 771       
=================================================================
Total params: 239,887
Trainable params: 239,887
Non-trainable params: 0
_________________________________________________________________
None
Epoch 1/50

  1/200 [..............................] - ETA: 8:21 - loss: 1.1012 - accuracy: 0.3281
  2/200 [..............................] - ETA: 5:27 - loss: 1.0709 - accuracy: 0.3867
…
